models/skeleton_lstm_pytorch_model.pth (torch, 912261 bytes, 9 tensors)

lstm.weight_ih_l0 f4 [512, 55]
000000 43 35 46 bd 0c 30 b1 3d fd eb 3f 3d a0 27 50 3c
       -0.048390638 0.08651742 0.046855915 0.01270476
000010 32 a1 0c 3d f4 8f f7 3b 59 1b cd bc 59 6d 24 3d
       0.034333415 0.0075550023 -0.025037454 0.040143345
000020 df f1 99 3d df 92 96 3d 90 c0 d0 3c 63 ce a5 bd
       0.075168364 0.07352232 0.025482446 -0.08096006
000030 00 c6 07 bb 4a 5d 14 3d 0c 94 dc bc 70 ce 06 3c
       -0.0020717382 0.03622178 -0.026926063 0.0082279295
000040 e2 1b 05 bd 7a 17 4d 3d ba bd 7f 3d 7b c5 8d bd
       -0.032497294 0.050071217 0.062436797 -0.06922432
000050 b6 ea 6c bd e0 e5 d2 bb 80 ed b9 bb b8 56 6a 3c
       -0.057841025 -0.0064360946 -0.005674064 0.014302902
000060 40 6c 1c bc de 2a 0d 3d a8 37 12 3c 18 5d 0f bc
       -0.009547293 0.03446471 0.008924402 -0.008750223
000070 38 04 b3 bd d8 35 b3 bd 5c 08 49 bd 34 6d 89 bd
       -0.08741039 -0.08750504 -0.049080238 -0.06710282
000080 40 7a 3f bb ab ad 90 bd 93 26 a4 3d 97 a5 9e 3d
       -0.0029217154 -0.070643745 0.0801517 0.077464275
000090 d7 61 6f bd 02 0d 79 3d de 6c 45 3d c7 d8 82 3d
       -0.058442917 0.06080342 0.048199527 0.06389003
0000a0 b0 e5 93 bb 25 bc 96 3d c2 44 7e bd 78 2e 3b 3c
       -0.004513465 0.073601045 -0.06207729 0.011424653
0000b0 70 40 8e bc 5f 04 91 3d 62 41 29 3d dc 66 ae bd
       -0.01736471 0.07080912 0.04132212 -0.085157126
0000c0 38 8a 87 bc e7 3e 17 bd ac 96 fa 3c 22 75 42 bd
       -0.0165454 -0.036925223 0.030589424 -0.047474988
0000d0 4f b0 a9 bd 84 ec aa bc 56 c3 32 3d 71 69 cc bd
       -0.08285581 -0.020864733 0.043643318 -0.09981049
0000e0 74 c6 05 3e 07 81 1f bc db 01 37 3d d4 0c bd bd
       0.13063985 -0.009735352 0.044679504 -0.092309624
0000f0 b5 b9 57 bd 3f 2b 69 bd 23 a5 6e 3d c4 43 d5 3c
       -0.05266734 -0.05692601 0.058262955 0.02603329
000100 20 17 8f bb 10 ef da bb b6 4f 3f 3d 55 6c 67 bd
       -0.0043667704 -0.0066813305 0.046706878 -0.056499798
000110 60 08 8f bd 7d 24 98 3d b0 e6 92 3b d0 a0 b6 bc
       -0.06984019 0.074288346 0.0044830665 -0.022293478
000120 30 d9 3e bd 3d 37 90 3d f5 6f ab bd ec 60 a2 bc
       -0.046593845 0.07041786 -0.083709635 -0.019821607
000130 f4 b0 8f bc 38 50 85 3c 9f 44 4c bd f8 08 d6 3c
       -0.017540433 0.016273603 -0.04987013 0.026127324
000140 04 15 a0 bd eb 60 11 bd 50 d4 ae bd 82 bb 71 bd
       -0.078165084 -0.03549282 -0.08536589 -0.059016712
000150 94 22 2b bd 2c dc 09 3d e2 e3 39 3d d8 e7 17 bd
       -0.041781023 0.033657238 0.04538334 -0.037086338
000160 44 18 81 bd a8 cc e4 bc a1 33 94 3d f0 12 3b 3c
       -0.063034564 -0.027929619 0.0723641 0.011418089
000170 25 8d 91 bd 4a 68 9d bd a0 32 00 3d 58 77 e8 3c
       -0.07106999 -0.07685907 0.03129828 0.02837722
000180 d1 4f 9a 3d a4 33 ac 3c 34 ef b1 bc d6 a2 69 3d
       0.07534755 0.021020718 -0.021720506 0.057040058
000190 d3 f0 b1 bd ed 8b a1 3d ae 04 68 bd ea d0 61 3d
       -0.08688512 0.07888017 -0.056645088 0.055130877
0001a0 78 b4 93 bd 90 bd 98 bb 17 03 4d bd 01 6e b0 bd
       -0.07212156 -0.0046612695 -0.050051775 -0.086147316
0001b0 db b9 66 bd c0 9b 23 3b 27 a5 f6 bb 86 75 4f 3c
       -0.05632959 0.002496466 -0.007527012 0.012662297
0001c0 b8 a1 96 3c dc a5 6d bc 3c 40 28 3c 1d 1f 47 3d
       0.01838766 -0.014504876 0.010269221 0.048613656
0001d0 47 9c 53 bd 19 fb 67 3d ca 30 59 bd 73 0d 3f bd
       -0.05166271 0.05663595 -0.053025045 -0.046643686
0001e0 08 b7 a9 3c 9c 7f bf 3c fd 6f 67 bd 10 97 42 bd
       0.020717159 0.023376279 -0.056503285 -0.047507346
0001f0 e1 8f a7 3d 5a 08 54 3d e0 03 c0 bc 51 67 b3 3d
       0.081817396 0.051765777 -0.023439348 0.087599404
000200 51 c4 a4 3d 0e c3 68 3d 28 b0 c6 3c 00 cb 81 bd
       0.08045257 0.056826644 0.02425392 -0.06337547
000210 42 2e 42 3d 6b 16 a7 3d ad d3 53 bd 16 1f 6b 3d
       0.047407396 0.08158573 -0.05171554 0.057402693
000220 36 1b 28 3d e2 63 62 3d da d9 46 3d 5e 30 90 bd
       0.041041575 0.055271037 0.048547603 -0.07040475
000230 23 44 ac 3d d9 f0 a0 3d 06 88 5c bd 04 6f ba 3c
       0.084114335 0.07858438 -0.05384066 0.022758015
000240 20 45 0e 3b c0 7a 65 bb b0 8b 6b 3c e6 af 72 3d
       0.0021708682 -0.0035015792 0.014376566 0.05924978
000250 ba a5 54 3d 29 e9 af 3d 68 20 6d bd e0 17 5a 3c
       0.05191586 0.08589394 -0.057892233 0.013311356
000260 6e 42 a0 bd c1 8c 93 bd 5b 76 8a 3d 80 a3 b0 3a
       -0.078251705 -0.07204581 0.06760856 0.0013476461
000270 e8 8d 51 bc cc cd 6e bd e7 c1 37 bd c1 e4 47 bd
       -0.012790181 -0.058301732 -0.044862654 -0.04880214
000280 72 8a 29 3d fb 7b 9f bd 37 5c 8b 3d fa 6e 36 3d
       0.041391797 -0.07787319 0.06804698 0.04453943
000290 3b 06 37 bd af ab 4c bd 73 2f 15 3d e4 8e b7 3d
       -0.044683676 -0.049968418 0.036422204 0.08962801
0002a0 1a 43 f9 3d 31 1d ec bc 5a 99 a2 bd 4c 8c 62 bd
       0.12171002 -0.028822513 -0.07939406 -0.05530958
0002b0 0c 32 1b 3d aa b3 2a bd f8 8d 10 3d 60 69 ec 3c
       0.037889525 -0.041675247 0.035291642 0.02885884
0002c0 be 92 6e 3d d4 cc e9 3c 48 3f 23 bc 58 f0 83 3c
       0.058245413 0.028540052 -0.009963818 0.016105816
0002d0 84 48 c2 3c 1b 55 80 3d 61 dd 81 3d 32 dc 99 bd
       0.023716219 0.062662326 0.06341053 -0.07512702
0002e0 50 97 89 bd 8c 9f 8f bd e9 0b 4a bd c2 fa 90 bd
       -0.06718314 -0.07012853 -0.049327765 -0.07079078
0002f0 12 bf 87 bd c6 36 52 3d 36 41 9f bd 40 1f 62 3c
       -0.06628241 0.051321767 -0.0777611 0.013801396
000300 6f a3 99 bd 95 77 b2 3d 80 ff 4c 3a a3 f2 b2 3d
       -0.075018756 0.08714215 0.0007820055 0.087376855
000310 57 c0 8d 3d 34 8f b3 bd 54 23 a5 3c 54 6b ab 3c
       0.069214515 -0.08767548 0.020158447 0.020925201
000320 56 60 16 3d 5e 62 0b 3d 48 fb c6 3c f6 91 99 bd
       0.036712967 0.034029357 0.024289742 -0.07498543
000330 5e 6c 58 3d f8 c9 06 bc 3a 39 0c bd 9d f4 98 bd
       0.052837722 -0.008226864 -0.034234263 -0.07468531
000340 be 1d a4 bd 25 d7 0e bd 8a dc 00 3d 7b 4f 92 3d
       -0.08013485 -0.034873147 0.031460322 0.07144066
000350 1f 40 38 bd ba 8f 2a 3d 00 33 7b ba a0 9b ea 3b
       -0.044983026 0.041640975 -0.000958249 0.007159665
000360 d4 9e 66 bd 3e de 33 3d d8 12 aa bd 40 8e b2 bc
       -0.056303814 0.04391312 -0.083043754 -0.021796346
000370 63 a5 c2 bc ce 29 6a 3d e6 37 a0 3d 55 ba c2 3d
       -0.023760503 0.057168774 0.07823162 0.09508196
000380 37 90 d8 3d 1d 67 5b 3d 08 e7 f3 3b 04 b6 4c bc
       0.10574382 0.053565133 0.0074433126 -0.012494568
000390 6b 66 9a bd 3f 36 55 bd 81 9c 61 bd 60 60 54 bb
       -0.07539066 -0.052053686 -0.055080894 -0.0032406077
0003a0 e8 84 5e bd 71 07 86 3d e0 92 c6 bc 4a e7 47 3d
       -0.054325968 0.06544388 -0.024239957 0.04880456
0003b0 cd 43 af 3d cf a0 9e 3d 64 17 b7 bc 40 62 68 3b
       0.08557854 0.077455156 -0.02235002 0.0035458952
0003c0 6c bd 82 bc c3 de a8 3d cc df 93 3c 50 94 be bb
       -0.015959464 0.082456134 0.01805105 -0.00581602
0003d0 02 77 49 bd 4c 96 0c bd b9 b0 8a 3d 08 3c 90 bd
       -0.04918576 -0.03432302 0.067719884 -0.070427
0003e0 41 fc a9 3d 93 27 a9 3d 6d 1b 19 bd 59 e9 82 3d
       0.08300067 0.08259501 -0.03737967 0.06392164
0003f0 00 59 89 bb c0 c6 c3 bb fe 70 48 3d 6c 69 f6 3c
       -0.004191518 -0.0059746206 0.048935883 0.030079566

lstm.weight_hh_l0 f4 [512, 128]
000000 15 93 9a 3d f5 28 9b 3d 47 f9 50 bd 32 23 98 3b
       0.07547585 0.07576171 -0.05101898 0.0046428675
000010 84 e9 86 3c 12 ed 3b bd f9 8e b7 3b 36 c5 9d bd
       0.01646877 -0.045880385 0.0056017605 -0.077036306
000020 7c af ab bd ff 89 08 bd 36 8f 8a bd 85 28 b1 3d
       -0.0838308 -0.03333473 -0.067655966 0.086503066
000030 4c 49 8f bd bd ee 93 3d bd 61 3d bd 51 ec 11 3c
       -0.06996402 0.0722327 -0.04623579 0.00890644
000040 7e ed 9e bd 72 43 ae 3d f4 97 b1 3d 87 62 84 3d
       -0.07760142 0.08508958 0.08671561 0.06464105
000050 44 2e 12 3d aa d4 5b bd 86 d1 6d 3c 28 29 49 3c
       0.035688654 -0.05366961 0.014515286 0.012277879
000060 86 b4 41 bd 80 b3 66 3c 40 16 4c bd e8 77 af 3c
       -0.0472913 0.014080882 -0.049825907 0.02141948
000070 db 53 55 3d e0 bb e4 3b 9c 10 08 bb ce 00 16 3d
       0.052081924 0.0069804043 -0.0020761853 0.03662186
000080 e2 1d 9b bd 3d 0b a6 3d 9c e8 c6 bc c4 70 1d 3b
       -0.07574059 0.08107612 -0.024280839 0.0024023512
000090 bc 90 80 3d 90 44 09 bc 87 ee 87 3d f4 b4 b9 bc
       0.06277606 -0.008378163 0.06637292 -0.022669293
0000a0 52 b2 53 bd b3 43 16 bd d7 84 11 bc 5a ff aa bd
       -0.05168373 -0.036685657 -0.008881769 -0.08349486
0000b0 c1 45 0c 3d 3e 3e a4 bd 73 64 9d 3c 68 7a 6f bd
       0.03424621 -0.08019684 0.019212937 -0.058466345
0000c0 94 2a 89 bd 4f 35 88 3c aa 8c 9a 3d 9f 98 3c 3d
       -0.06697574 0.016626982 0.07546361 0.04604399
0000d0 08 67 3d bd 9b db 87 3d ba 62 6b bc bd 33 88 bd
       -0.046240836 0.06633683 -0.0143668 -0.06650493
0000e0 ba 32 90 bd 5f 78 ab 3d 08 b2 77 3c 56 9d da bc
       -0.07040925 0.08372568 0.01511813 -0.026686352
0000f0 de db 22 bd 16 03 10 3c eb bd 93 3c a8 e3 d7 3c
       -0.039760463 0.008789798 0.018034896 0.026353672
000100 86 c1 9a bd ec c5 67 3c 76 dd c3 bc 8e 6d dc bc
       -0.07556443 0.014146309 -0.023909312 -0.026907708
000110 69 a4 99 3d d1 69 96 3d 57 32 9e 3d 48 40 51 3c
       0.07502062 0.07344402 0.07724445 0.0127716735
000120 14 78 a9 3c bd bc 05 bd 2b 7f 90 3d a9 97 90 bc
       0.02068714 -0.032650698 0.07055505 -0.017650442
000130 76 db 10 3d 46 89 a9 3d 05 21 91 3d a6 6e 82 3d
       0.035365544 0.08278136 0.07086376 0.06368761
000140 f7 31 77 3c a7 72 74 bd e9 b1 25 bd 2d f2 93 3d
       0.015087596 -0.059679653 -0.04045287 0.07223926
000150 2b b1 b1 bd c6 0d ae 3d eb 18 2a bd af 92 72 3d
       -0.0867637 0.08498721 -0.04152767 0.05922192
000160 9c c3 0c 3d d4 46 42 bd e6 cd 46 3d a0 21 5c bc
       0.034366235 -0.04743083 0.048536204 -0.013435751
000170 dd 58 96 3d 73 f5 00 3d d3 86 62 3d 30 66 8b 3b
       0.07341168 0.03148408 0.05530436 0.004254125
000180 ee 04 26 3d 00 41 1d 3c 80 ce 91 ba cc c9 f4 3c
       0.040532045 0.009598017 -0.0011124164 0.02988138
000190 4d b5 9f bd 6c e6 30 3c 81 49 a1 bd 07 a1 0a bd
       -0.07798252 0.010797124 -0.07875348 -0.033844974
0001a0 55 37 92 3d fa 32 a9 3d 4a 72 83 3d 40 42 66 3b
       0.0713946 0.08261676 0.06418283 0.0035134703
0001b0 5f 22 80 3d 8c 2a cb 3c e6 b7 96 3d 11 af 81 3d
       0.06256556 0.024800561 0.073592946 0.063322194
0001c0 58 18 dc 3c 54 e2 83 bd e5 ba 00 bc 2c 08 93 bd
       0.026867077 -0.06439653 -0.007857059 -0.07179293
0001d0 d9 68 9f 3d 90 ce 27 3c 7d d6 84 3d 37 e1 97 3d
       0.0778367 0.010242119 0.06486223 0.07416003
0001e0 b4 2e 09 bd 22 31 5e 3d 01 23 da 3c 63 4f 14 3d
       -0.033491805 0.054246075 0.02662802 0.03620852
0001f0 b7 17 41 3b 34 79 8a bc 3e 73 91 bd 18 3e f8 3c
       0.0029463598 -0.016903497 -0.07102059 0.030303046
000200 b2 8e b8 3c 56 83 0c 3b e3 3c 87 3d 7e 19 7f ba
       0.02252898 0.0021440587 0.0660341 -0.00097312767
000210 81 d4 2f 3e b1 cb b3 bd 85 19 08 3e f8 a0 e4 3c
       0.17170908 -0.087790854 0.13290985 0.027908787
000220 6c f0 87 3c a0 3a 92 3d 15 9b a5 bd 1c 9a 32 bd
       0.016594134 0.07140088 -0.0808622 -0.043604
000230 74 ed 0f 3e 54 cf 6d bc 44 73 d0 bc 83 36 4a 3c
       0.14055425 -0.014514763 -0.025445588 0.012342098
000240 f0 c9 9c 3c 8e ac 5f bb 5b 6d 86 3d 98 57 76 bc
       0.01913926 -0.003412995 0.06563827 -0.015035532
000250 4e 10 3e 3d 10 f4 aa bd 4d 56 a0 3d 02 70 68 3d
       0.046402268 -0.083473325 0.078289606 0.056747444
000260 e6 e7 60 3d db 9d 9f 3c 3f 44 5a 3d 9a 2c 62 3d
       0.054908656 0.019484451 0.05328774 0.055218317
000270 c1 57 15 3b 34 c3 8b 3c b2 b1 b1 bd 37 a0 ed b9
       0.00227879 0.017060854 -0.08676471 -0.00045323532
000280 ae 81 34 3c fe 2f 77 bd 81 8b 0e bd 5c 62 ea bd
       0.011017246 -0.060348503 -0.03480101 -0.11444542
000290 17 1a c9 ba 74 31 92 bc 90 5b 53 3b e1 1c 2f bd
       -0.0015342858 -0.017845847 0.003225062 -0.04275215
0002a0 95 97 af bd eb 73 6b 3d 21 60 a7 3d 6f 17 a3 3c
       -0.08573834 0.057483595 0.08172632 0.019908635
0002b0 7a 07 cf 3b a0 47 be 3c 46 a3 8e 3d 72 fa 2e 3e
       0.00631803 0.023227513 0.06964736 0.17087725
0002c0 ed e4 c2 bd 58 76 b3 bd fa ee a4 bd c4 68 b5 3b
       -0.095163204 -0.08762807 -0.08053394 0.0055361707
0002d0 71 bc 8f 3d bb e9 17 3e 35 1c 55 3c 3b fa 77 3c
       0.07018364 0.14835255 0.013007213 0.015135343
0002e0 43 78 0f bd 09 4e 20 bc f1 97 2a bd 96 a0 5b 3b
       -0.0350268 -0.00978423 -0.04164881 0.0033512465
0002f0 76 e5 05 bd 6e 1f 9f 3c 74 6b c9 bd 30 c7 32 3c
       -0.032689534 0.019424167 -0.09834948 0.010911748
000300 69 ce 0f 3e 8e 7d a8 bc 6d d8 7a 3d 88 d3 87 3d
       0.14043583 -0.020567682 0.061241556 0.06632143
000310 a0 c1 a5 3c 73 67 2c 3d 6a 56 91 3d 58 18 8e 3d
       0.02023393 0.042090844 0.0709656 0.06938237
000320 ea a0 ae bd b7 bd 43 bd 4e 1b a3 bd 82 ef 01 bd
       -0.08526786 -0.047788348 -0.07964192 -0.031722553
000330 36 bf ab bc cf ab 35 bc cf 38 40 bd 29 3a a0 bd
       -0.0209652 -0.011088326 -0.046929177 -0.07823593
000340 a0 8f 15 3d 89 9c 5d 3d 9b 88 67 3d 00 b6 58 bd
       0.036513925 0.05410436 0.05652676 -0.052907944
000350 41 74 ea bb 91 0a 5b bd cb b0 64 3c cb 03 e2 bd
       -0.007154972 -0.053476874 0.013958166 -0.1103588
000360 88 bc 91 bd b8 10 06 bd 91 d1 33 bd 94 01 32 bd
       -0.071160376 -0.032730788 -0.04390103 -0.043458536
000370 b0 bc 4b 3b f3 18 13 bd e5 26 8e 3c 46 f6 90 bd
       0.0031087808 -0.035912465 0.01735253 -0.07078223
000380 71 22 29 3d 17 f2 ae 3d 3d 80 9b bd 14 b9 a6 3c
       0.04129261 0.08542269 -0.07592819 0.020351924
000390 98 5f c9 3c 65 be 57 bd 00 06 c1 39 b6 1d d4 bc
       0.024581715 -0.05267181 0.000368163 -0.025893074
0003a0 75 a2 c7 3d 99 9b b2 3c f1 5a 40 3d 8a 3d 2b bd
       0.09747783 0.02180271 0.04696173 -0.041806735
0003b0 c9 55 47 bd 32 5a a1 3d a9 da 33 bd 61 77 5f bd
       -0.048665795 0.078785315 -0.043909702 -0.054557208
0003c0 9e 62 72 bd 86 b3 09 3d 98 fa 20 bd 47 21 ae bd
       -0.05917608 0.033618473 -0.039301485 -0.08502441
0003d0 4b a6 35 3c e0 13 dd bc 3f 02 45 bd f8 d1 70 bd
       0.011087011 -0.026987016 -0.048097845 -0.05879399
0003e0 79 e7 bd bd 3c e3 7d bd 8e 4a cd bd 9d 92 b8 bb
       -0.092726655 -0.061984286 -0.10023986 -0.005632712
0003f0 b9 90 da 3d d8 ac e4 3c d5 3f 8c 3d 11 fe 4b bd
       0.10672135 0.02791445 0.068481125 -0.049802843

lstm.bias_ih_l0 f4 [512]
000000 3f 07 f1 bc 22 e2 97 ba 10 e2 a1 bc 3e 10 31 3d
       -0.0294224 -0.0011587779 -0.019761115 0.04322838
000010 cb 27 ee bc 8a 40 9a bd f2 af e1 bc 56 17 18 3d
       -0.02907171 -0.07531841 -0.027549718 0.03713163
000020 0e af 1d 3c 2d ec 5c bd 2c 56 74 3d 78 b6 01 bc
       0.009624256 -0.053936172 0.059652492 -0.007917039
000030 10 dd 50 3d fb cf 58 3d 27 bc 93 3d 98 a6 ce bc
       0.05099207 0.05293272 0.072136216 -0.025225922
000040 3e ea 3f bd 16 06 a4 bc d8 ec d9 bc e0 27 06 3c
       -0.04685425 -0.020022433 -0.026602194 0.008188218
000050 20 0e 9a bc 8b 47 d2 bc e2 d2 19 3c 30 0a 82 bc
       -0.018805563 -0.02566888 0.009388657 -0.015873998
000060 67 37 31 bd e1 27 93 bd d3 20 2c bd 60 c9 de 3c
       -0.043265726 -0.07185341 -0.04202349 0.027195632
000070 52 f9 40 bd 35 f1 20 bd 4f 3c cf bc b6 8b 5b 3d
       -0.04711277 -0.039292533 -0.025297312 0.053600036
000080 34 21 1b bd 1c 4e 64 bd 68 2d 45 bd c1 a3 bf 3d
       -0.03787346 -0.055738553 -0.048139006 0.093574055
000090 81 e4 71 bc 0b 3d b2 3d 4c 58 b7 3c 5c 94 a8 bd
       -0.014763952 0.08703049 0.02238097 -0.08231422
0000a0 8e f9 95 bd 4b 4b 32 3d a1 d8 db bd b6 bb b0 3d
       -0.073229894 0.043528836 -0.10734678 0.08629553
0000b0 96 e9 0d 3d 2a be 91 bd e0 d3 c1 3b 79 32 49 bd
       0.034646593 -0.07116349 0.00591515 -0.0491204
0000c0 09 0d 07 bd 8b 8f 80 3e 83 3b c2 bc 98 11 55 bc
       -0.032971416 0.25109515 -0.023710018 -0.013004683
0000d0 55 a4 ff 3c f9 0b ee 3d 68 ff d2 3c 15 91 3b 3e
       0.03120629 0.11623377 0.025756553 0.18317063
0000e0 04 24 f5 bc ef 7b ae 3d 38 00 31 bd 44 4a f4 3c
       -0.0299244 0.08519732 -0.0432131 0.029820569
0000f0 09 52 03 bd f6 d3 70 bd c2 ba 1c 3d cd a1 85 3d
       -0.032060657 -0.05879589 0.038264044 0.06525002
000100 82 75 8a bd 3f d2 98 3d d1 1f b7 3d 3b 53 4e bb
       -0.06760694 0.07461976 0.089416154 -0.0031482715
000110 73 5d aa bd 7f 6f 80 3d f7 9e 22 bd f3 56 48 bc
       -0.08318605 0.06271266 -0.039702382 -0.012227762
000120 79 cd 54 bd 94 70 80 bc 1e c7 a5 bc 50 1c d8 bb
       -0.051953766 -0.015678681 -0.020236548 -0.006595172
000130 8b 15 b1 bd fe c6 93 bd 67 0f 00 bd d3 2a a1 bd
       -0.08646687 -0.07215689 -0.03126469 -0.07869496
000140 92 79 f5 bd 7f e9 2a 3d db 84 97 bd 86 52 7a bc
       -0.11986078 0.041726585 -0.07398387 -0.015278464
000150 fc 31 2d 3d 0d 77 bb 3d 02 eb 8c 3d a5 05 c6 3d
       0.042283997 0.091535665 0.06880762 0.09669045
000160 f3 f4 9c 3d 57 46 9e bd 40 ab a1 3a 3a 9b b7 3a
       0.07663908 -0.0772826 0.0012334362 0.0014008053
000170 0d b5 da 3d d9 0c 13 be a5 1a 71 bb a0 72 3f 3c
       0.10679064 -0.1436037 -0.0036789563 0.011685044
000180 f6 f3 7f bb 50 47 e7 3c ce 81 9e bd 10 75 81 bc
       -0.0039055324 0.028232247 -0.07739602 -0.01580289
000190 bc 94 a0 bc ed 2f c3 3e c8 a7 83 bd 10 49 f7 bc
       -0.019602172 0.38122502 -0.06428486 -0.030186206
0001a0 e8 91 c3 3c fe cd 7c bd d4 96 7a 3d 58 3b 18 bc
       0.023873284 -0.061719887 0.061178997 -0.009291492
0001b0 56 b2 fa ba 20 71 8a 3d 7b a0 ca 3d 2f 17 69 bd
       -0.0019126635 0.06759858 0.098938905 -0.056906875
0001c0 b4 10 ba 3c bc e1 a9 3e 3a c4 a0 3d 78 13 15 bc
       0.022713043 0.33180034 0.07849927 -0.00909888
0001d0 a2 67 28 3d 6d 71 4c bd 32 28 6b 3d 36 11 e0 bd
       0.041114457 -0.04991286 0.05741138 -0.10940783
0001e0 22 cb b2 3c 80 e7 ec ba 30 1d 7f 3c da fb cd 3e
       0.021825377 -0.0018074363 0.015570924 0.4023121
0001f0 62 91 ee 3c d8 1b 8d bd 45 c6 b1 3d 1b 0f 64 bd
       0.029122058 -0.068900764 0.08680395 -0.05567847
000200 9c cc 74 bd cd 6e 6f bd b2 ec 1b 3d d0 e8 e0 3c
       -0.059765443 -0.058455277 0.038067527 0.027454764
000210 21 00 b3 3d 00 e6 bb 3c f4 66 5d 3d eb f7 98 3d
       0.08740259 0.022936821 0.054053262 0.074691616
000220 e8 4a 45 3d 36 20 bd 3c d5 7f 3d bd c9 5e 9e bd
       0.04816714 0.023086648 -0.04626449 -0.077329226
000230 2f 59 a5 bd 4d 67 8f bd bc 65 ec bc 03 75 9c bd
       -0.08073651 -0.07002125 -0.028857104 -0.07639506
000240 8e 2d 85 bd df 4e 3b 3d a2 ea 82 bd 2f bf 85 3d
       -0.065028295 0.045729514 -0.06392409 0.06530606
000250 28 fd 89 bc 15 31 06 bd 78 7d 2f 3d 13 6d 84 3d
       -0.016844347 -0.032761652 0.042844266 0.06466117
000260 9d 5e 9d bd de 55 6d 3d 38 24 62 bd 9c 4d 45 bd
       -0.07684062 0.057943217 -0.055210322 -0.048169717
000270 fd ff a6 3b 42 70 06 3d 4d a2 a1 3c 9c 00 0e 3d
       0.005096434 0.0328219 0.019730711 0.03466855
000280 c6 78 1f 3d eb 57 4b bd c9 8e ee bb 5c a0 b4 bc
       0.038933538 -0.049644392 -0.007280205 -0.022049122
000290 f0 66 91 bc 4b 1d a0 bd ba f5 a0 3c bf 44 98 bd
       -0.01774928 -0.07818087 0.019648422 -0.07434987
0002a0 5e 0f 20 3d cc 79 95 bd 9b a6 6b 3d 57 5c bb 3d
       0.039077155 -0.072986215 0.057531934 0.09148472
0002b0 7d ec a5 bd 3d 26 ab bd 1a 67 d3 3c 98 6e 61 bd
       -0.08101747 -0.08356903 0.025805999 -0.05503711
0002c0 d0 63 da 3d c8 ed 01 bd 81 a0 e9 bd b5 72 d5 bd
       0.10663569 -0.031720906 -0.11407567 -0.10422269
0002d0 bb f3 52 3c 6f ab 9b 3d 34 8c c5 3c 64 9c d3 3d
       0.012875493 0.07601058 0.024114706 0.103325635
0002e0 77 7c 56 3d 4b 55 94 bd c7 77 9f bd 40 08 be 3a
       0.052364793 -0.07242831 -0.077865176 0.0014498308
0002f0 15 40 b3 3d bc 11 0c bc 08 15 01 bd 08 82 dd bc
       0.08752457 -0.00854915 -0.031514198 -0.027039543
000300 b5 7f ca bd ef d4 e1 bb 00 77 87 ba 3a 41 81 bd
       -0.098876394 -0.0068918387 -0.0010335147 -0.06311269
000310 90 be a6 bb e9 de 84 bd c2 21 ad bd 13 13 7b 3d
       -0.005088635 -0.06487829 -0.084537044 0.061297487
000320 8e ca 6b bd 42 99 93 bd 7d 7e 62 3d 9b f9 b1 bd
       -0.057566218 -0.07206966 0.05529641 -0.086901866
000330 95 89 5c bd 0b ed 5a 3d 36 fa 4b 3d fa b8 05 bd
       -0.053842146 0.053448718 0.049799167 -0.03264711
000340 24 c2 27 3b 19 b6 fc 3b aa c9 67 3d 31 2f 86 bd
       0.0025597895 0.0077121374 0.056588806 -0.0655197
000350 11 43 ae 3d 30 47 08 bc 20 ef 5f bc f5 52 a4 3a
       0.08508886 -0.008317754 -0.013667852 0.001253693
000360 a6 54 b9 bd e7 73 58 bd 3f 29 83 3d c6 ba 98 3d
       -0.090493485 -0.052844908 0.064043514 0.07457499
000370 81 25 32 3d a8 f9 a9 3d d3 2d 8e 3d d4 66 94 3c
       0.043492798 0.08299571 0.06942334 0.018115439
000380 29 54 6f bd 40 14 2d bb 7f 49 a0 3d 59 13 78 bd
       -0.05842987 -0.0026409775 0.07826518 -0.060565326
000390 e0 31 25 3c 35 fb 08 3d 94 13 8a bc 88 57 b0 3c
       0.010082692 0.033442695 -0.016855039 0.021526113
0003a0 65 66 70 bd d9 d0 a1 bc 0f 20 42 3b 77 8e 30 bd
       -0.0586914 -0.019752907 0.002962116 -0.043104615
0003b0 f2 36 2a bd 02 20 15 3d 49 a9 a3 bd a5 74 30 bd
       -0.041556306 0.03640748 -0.07991273 -0.04307999
0003c0 4c b4 77 bd 68 ca a5 bc 15 19 97 3d 06 46 51 bd
       -0.06047468 -0.020238116 0.07377831 -0.05109217
0003d0 ae 59 17 3d 79 ae 93 3d 3f 9e 44 bd cd 62 16 3d
       0.03695076 0.072110124 -0.048002478 0.036715318
0003e0 ff 1d b3 3d f5 c7 4e bd d4 d0 a3 bd 80 2a 43 3d
       0.08745956 -0.050483663 -0.07998815 0.047647953
0003f0 29 79 a3 3d 89 54 40 3a 27 bb 99 3d 06 0c 95 bd
       0.07982094 0.00073368155 0.075063996 -0.07277684

lstm.bias_hh_l0 f4 [512]
000000 3c 16 2e 3d 97 ea a5 bc 34 97 ff bc e4 a3 b1 3c
       0.042501673 -0.020253463 -0.031200029 0.021684594
000010 6f 83 9b 3d 41 2d 84 3d 78 39 8b bd a0 12 3a bd
       0.07593428 0.06453944 -0.06798071 -0.04542792
000020 63 bd 8e bd 8b 53 f1 3c f2 59 15 3d 45 f9 95 3d
       -0.069697164 0.029458782 0.03646273 0.07322935
000030 34 00 61 bd 8b a9 89 bc fe 88 83 bd 66 10 c8 bc
       -0.054931834 -0.016804477 -0.064226136 -0.024421882
000040 c8 b0 55 3d 62 b6 d9 3b e8 f2 58 bc d6 92 68 3d
       0.052170545 0.006644056 -0.013241507 0.05678066
000050 00 78 42 ba ab 52 50 3d af 37 33 bd 8e 17 44 bd
       -0.0007418394 0.05086009 -0.043754276 -0.047874026
000060 81 c8 ae 3d d6 36 ea 3c d5 61 b3 3d 04 bd c3 3c
       0.08534337 0.028590601 0.08758894 0.02389384
000070 81 01 90 3d 73 f4 86 bd 3a fd 7a 3d 75 2d a2 3d
       0.07031537 -0.06589594 0.061276652 0.079188265
000080 50 34 a8 bb 9a 4a 13 3d 5c 8d b3 bd 8e 19 09 bc
       -0.0051331893 0.035959817 -0.087671965 -0.008367909
000090 01 08 f6 bc 79 32 b1 bd 70 bc 67 bd 94 3e c7 3c
       -0.030033113 -0.08652205 -0.056576192 0.024321832
0000a0 e0 01 65 3c 5b 1f 3b 3d 9f e4 ab bc ba d5 b4 3d
       0.013977498 0.0456842 -0.020983038 0.088298276
0000b0 f6 94 4c b9 d7 bd ab 3c ce 8e 86 bd b0 89 dd bc
       -0.00019510448 0.020964546 -0.065702066 -0.027043194
0000c0 d7 d1 9f 3d 68 20 87 3e 48 60 b2 bb c7 11 ac 3d
       0.07803696 0.26391912 -0.0054436065 0.08401828
0000d0 1a c8 99 3d 2b 67 89 3d 98 72 09 bc 6c 2f 9c 3d
       0.075088695 0.06709131 -0.008389138 0.076262325
0000e0 41 f9 9f bd ae 51 44 bc 23 1d 9f 3d be cf a6 bd
       -0.07811213 -0.011982365 0.07769229 -0.081450924
0000f0 ed 8b 97 3d d4 b1 b8 3d 52 52 7f 3d a5 36 87 bd
       0.073997356 0.09018293 0.062334366 -0.066022195
000100 41 29 c3 bc d6 7e 83 bd a0 f3 5e 3d 53 d0 39 bc
       -0.023823382 -0.064206764 0.054431558 -0.011341172
000110 38 17 92 bd 29 e5 8b 3d 56 20 09 bd 81 94 0d bd
       -0.07133335 0.06830818 -0.033478104 -0.034565452
000120 30 84 72 3c ba 31 7d 3d 3c 7a 3c bc c5 54 43 bc
       0.014802024 0.061815 -0.011503752 -0.011922066
000130 ee 44 50 3d 41 2c 11 bd 30 cc 35 bc 8b 84 2e bd
       0.050846986 -0.035442594 -0.011096045 -0.04260687
000140 4f 8f aa bd d5 02 5c bd e2 f9 2e 3c 61 09 88 bd
       -0.08328115 -0.05371364 0.010679694 -0.06642414
000150 46 ed 82 3c 92 bf eb bc 9e e3 06 3e 73 7e c1 3d
       0.015982281 -0.028777871 0.13172767 0.094479464
000160 e8 cd 2e 3d 00 9d f4 39 3a 6b 6e 3d a3 b1 a4 3c
       0.042676836 0.0004665628 0.058207728 0.020104235
000170 4d b6 19 3d 5a 59 03 be 38 69 6c 3c d6 24 4d 3d
       0.03752737 -0.12827054 0.014429383 0.050083958
000180 2a 55 ce 3d 4f 35 8f 3d 96 1f b4 bd 80 41 9a 3a
       0.100748375 0.0699259 -0.08795087 0.0011768788
000190 4b 43 a1 3d 5d 6c dd 3e 16 ab 49 3d 19 09 8c bd
       0.07874163 0.43246737 0.049235426 -0.06837673
0001a0 11 d6 a1 bd 7d b0 86 3d 95 15 23 bd 96 94 27 3d
       -0.07902158 0.06576631 -0.039815504 0.040913187
0001b0 30 e2 64 3d 02 de 8b 3d 82 d0 4d 3d 3a e0 2b bd
       0.05587977 0.06829454 0.050247677 -0.041961886
0001c0 ac d0 8d 3c b6 65 c6 3e cf 29 90 3d 89 50 2a bd
       0.017311417 0.38749474 0.07039224 -0.04158071
0001d0 60 a1 da 3c 79 20 96 3d ac ea 06 3d 0f 3e 44 3d
       0.026688278 0.073304124 0.032938644 0.047910746
0001e0 78 68 a2 3d 55 c1 94 3d be bd 6e 3d 33 cf 92 3e
       0.07930082 0.07263438 0.05828642 0.28673705
0001f0 93 09 82 39 94 9f 73 3c bc 18 1c bd d1 db 7e bd
       0.00024802666 0.014869589 -0.038109526 -0.062221352
000200 00 00 73 39 84 1d ca bd ab e4 68 bd 28 0f 28 3c
       0.00023174286 -0.09868911 -0.0568587 0.01025752
000210 b1 ab b2 bc a7 0d 3e bd a7 88 df 3d 15 c1 ae 3d
       -0.021810384 -0.04639974 0.10914736 0.08532921
000220 ba 0e a9 3d 2a 65 44 3c 9b 00 fe ba d8 37 e3 3c
       0.08254762 0.01198701 -0.0019378843 0.02773659
000230 a9 36 5b 3d ae 18 4d bd 33 97 81 3d b8 2b af 3c
       0.053518925 -0.050072365 0.06327667 0.021383151
000240 c9 18 7b ba 4e 67 b3 3c 51 df 96 bb 00 fa 8a bb
       -0.00095785834 0.021899845 -0.004604258 -0.004241228
000250 9b 95 8f 3d 00 4b af bb dd e7 6c 3d 86 d8 2f 3d
       0.07010957 -0.005349517 0.05783831 0.042931102
000260 00 1b ee ba 18 37 98 3d 2c 51 d8 bc 40 c6 8d 3c
       -0.0018166006 0.07432383 -0.026405893 0.017306447
000270 96 39 97 3b 8b 39 87 bd 17 5f 12 3d 79 71 2e bd
       0.004615019 -0.06602772 0.035735216 -0.042588685
000280 08 03 17 bd 40 ab 4f 3b 12 07 99 3d 6a 72 80 bd
       -0.036868125 0.0031687766 0.07472052 -0.06271823
000290 b0 68 9c 3b c6 87 0e 3d 22 03 e7 bc 88 9e 65 bc
       0.004773222 0.034797452 -0.028199736 -0.014014848
0002a0 60 02 b0 3b 80 cd f4 3a 49 f4 97 bd b6 d8 d9 3c
       0.005371377 0.0018676966 -0.074196406 0.026592594
0002b0 6d ac 94 bd 0e ae 51 bc e5 cd 87 3d 30 5c 2c bd
       -0.0725945 -0.0127978455 0.06631068 -0.042080104
0002c0 86 ef b7 3d 6d fc b1 3d f4 f6 b0 bc eb 24 80 be
       0.08981232 0.086907245 -0.021602131 -0.25028166
0002d0 1d fe 8e 3d 4e 22 4e 3d f8 6b 92 bc a2 0c 5c 3d
       0.06982062 0.050325684 -0.01787375 0.053722985
0002e0 f0 24 cb 3c 25 bd 31 bd c0 8a 0f 3c 76 e5 b0 bd
       0.024797887 -0.043393273 0.008761108 -0.08637516
0002f0 9a 2f 1b bd b6 98 b4 bd 26 22 e3 bd f1 11 89 3d
       -0.037887193 -0.0881819 -0.11090498 0.06692875
000300 73 c4 40 bc 3a 23 da b9 10 2f cc 3c 26 06 a2 bc
       -0.011765587 -0.00041606446 0.024924785 -0.019778322
000310 bf dd 3b bd ab e0 a6 3d 0c 43 bd 3b 47 33 50 3d
       -0.04586577 0.08148321 0.005775815 0.050830152
000320 cf cd 9d 3d 85 f5 21 bd 05 97 4c bd 81 53 9c 3d
       0.077052705 -0.039540786 -0.04994871 0.076331146
000330 1b 85 02 bd 39 7d 8d 3d 56 6d 28 3d 9e fe 3d bc
       -0.03186522 0.0690865 0.041119896 -0.01159635
000340 48 77 87 bd a3 e2 22 3d 17 ce 88 3d 60 c2 c4 bc
       -0.06614548 0.03976692 0.066799335 -0.024018466
000350 2a 8a 27 3d dc fe b3 bc 6e 83 fb bc 4b 5f d4 ba
       0.040903248 -0.021972112 -0.030702319 -0.0016202716
000360 e8 56 08 3d cd 8c aa 3d 2a 6e 1a bd 98 7f b9 3d
       0.033286005 0.08327637 -0.037702717 0.0905754
000370 81 3b 9d bd ca 74 0f bd e0 aa 5b bd 40 84 ca 3a
       -0.07677365 -0.035023488 -0.053629756 0.001545079
000380 f8 44 cb 3c 33 70 81 bd 3a 1c 43 3d 59 88 0b bd
       0.02481316 -0.063202284 0.04763434 -0.034065578
000390 00 58 66 b9 ae b0 2a 3d ed bb 61 bd 17 fa 75 bd
       -0.00021967292 0.0416724 -0.05511086 -0.060052957
0003a0 d0 1a 09 bd a4 1e 32 3d 95 42 9e 3d ad 69 66 bd
       -0.033472836 0.043486252 0.07727543 -0.056253124
0003b0 50 a2 07 bd ef 17 88 3d c1 a5 81 bd 8e 11 33 bd
       -0.033113778 0.0664519 -0.06330443 -0.043717913
0003c0 ee f0 46 3d d2 95 0c 3c 28 ee 1b 3c 80 61 4a bc
       0.048569612 0.008580642 0.00951723 -0.012352347
0003d0 29 ed 66 38 2b 4b af 3d e4 f1 43 bd 5a 93 ea 3c
       5.5057146e-05 0.08559259 -0.047838107 0.028634716
0003e0 36 1a 9e bd 92 dc ac bd 14 66 dd 3c 89 59 83 bc
       -0.07719843 -0.08440508 0.027026214 -0.016033905
0003f0 70 6e 34 bc 35 2b a2 bc c0 28 9c ba 3d 26 39 3d
       -0.0110126585 -0.019795993 -0.0011914 0.045202482

lstm.weight_ih_l1 f4 [512, 128]
000000 00 ae 99 3d b1 7e 1e bd 52 80 ca 3c 0d 82 c6 3d
       0.07503891 -0.03869504 0.024719391 0.09692774
000010 81 14 b4 3d a8 49 2e bc 37 d2 a6 3c 08 37 2b bc
       0.08792973 -0.010637678 0.02036391 -0.010450132
000020 44 fd 1f 3d 54 2f 85 3c c0 97 7b bd 19 22 ea bc
       0.039059892 0.01625792 -0.061424017 -0.028580712
000030 52 67 4c 3e 67 77 0d 3d bd f6 b1 bd 33 3d 90 bd
       0.19961289 0.0345377 -0.0868964 -0.07042923
000040 58 fc 06 bd ab 6d bf 3b 5c 4b 94 3d 71 ef 8f 3d
       -0.032955498 0.005841931 0.07240936 0.07028092
000050 60 ca c0 3c c4 85 43 bd ee 6c a4 bd fb a1 42 bd
       0.023534 -0.04773499 -0.08028589 -0.047517758
000060 08 8a 8e bd 9c 3b a2 3d 11 d5 df bd e8 83 8c 3c
       -0.06959921 0.07921526 -0.10929311 0.017152742
000070 c3 90 28 be 7a 77 02 bd 10 f3 6b 3b 6b 82 06 be
       -0.16461472 -0.031852223 0.003600303 -0.13135688
000080 8a 81 30 3d cc f7 1e bd fb 77 e8 bb 5f e7 c4 3b
       0.043092288 -0.038810536 -0.007094381 0.006009027
000090 2c 2d 1d bd ae 77 4c bd ad 1b 3b bc 8f 7c 8d 3d
       -0.038373157 -0.049918823 -0.011420173 0.06908523
0000a0 ac 06 a0 3c 49 a7 24 3d 01 af b8 3e 19 bc f9 3c
       0.019534431 0.040198598 0.36071017 0.0304852
0000b0 b7 c0 b1 bc 83 eb 66 3d 60 a6 69 bd 4e 36 4c 3d
       -0.021698339 0.056376945 -0.057043433 0.049856476
0000c0 cf 17 f1 3c 98 23 8a 3c 3f 6c 29 bc e3 ab fc 3b
       0.029430298 0.016862676 -0.010340749 0.00771092
0000d0 ae b8 31 bd 23 1d 40 bc f6 86 6f 3b 3e f8 49 bd
       -0.043389015 -0.011725697 0.003654895 -0.049309008
0000e0 5f 58 c6 bb 99 1e 5a 3d f0 f8 aa 3c 5a f9 68 3d
       -0.006053015 0.053251836 0.020870656 0.056878425
0000f0 41 63 c0 3c 2c d3 09 bd 2d 71 ae bd a0 bd 1c 3b
       0.023484828 -0.033648655 -0.0851768 0.0023916736
000100 7a 04 32 be 6d d4 ad 3c 56 cd cc 3c ed dc 52 bd
       -0.1738452 0.021219457 0.025000256 -0.051480222
000110 95 0e 54 3c 5d da 10 3b 1b fb b0 bd 42 93 c9 bc
       0.01294293 0.002210281 -0.086416446 -0.02460635
000120 e2 cd 3c 3d fc b1 26 bd 68 4a 4b 3c ac cd d2 3d
       0.046094783 -0.040697083 0.012407877 0.10293135
000130 dd 3b 30 3d d2 0f 1a 3d d2 87 6f 3d 23 a4 6d be
       0.04302584 0.037612744 0.058479138 -0.23207144
000140 4c 56 df bd 3e 03 80 3d bf 24 e1 bc 44 c1 94 3d
       -0.10905132 0.062506184 -0.027483342 0.07263425
000150 8d a1 54 3c d1 5c 19 3d ee 1a d2 3d a3 02 45 be
       0.01297797 0.037442032 0.10259043 -0.19239287
000160 80 21 8c 3d 78 f9 e8 3c f5 34 98 bd 0c 40 20 bd
       0.06842327 0.028439268 -0.07431976 -0.03912358
000170 6f 2e ab 3c 82 35 90 bd 06 6c 07 3f 92 ad f7 ba
       0.020896165 -0.07041456 0.52899206 -0.0018896332
000180 b1 78 cc 3d 61 80 97 3d 31 6b 46 bd 3c 9f 97 bd
       0.099839576 0.07397533 -0.04844207 -0.074034184
000190 a7 ae 91 3d 05 a5 92 bd 8c ee 9f bd b2 91 a0 bd
       0.071133904 -0.07160381 -0.07809171 -0.07840289
0001a0 a5 1f 95 3d 75 28 fd 3d bc 7a a9 3c 26 72 b2 bd
       0.07281426 0.12361232 0.020688407 -0.08713178
0001b0 42 20 31 bd 57 19 ad 3d 58 2e c0 3c 68 12 6c bd
       -0.043243654 0.08452099 0.023459598 -0.05763474
0001c0 23 34 ea 3a cf a6 d4 3d 68 c9 af bd 10 df 1d bd
       0.0017868321 0.10383379 -0.08583337 -0.038542807
0001d0 7e cd 9a bc ec ed 6f bd aa b6 05 bd 61 ea e0 bc
       -0.018896814 -0.05857651 -0.032644905 -0.02745551
0001e0 54 b4 c5 be f6 a0 28 3d d3 c7 cf 3d 80 fa ea 3d
       -0.38614142 0.04116913 0.10145535 0.1147356
0001f0 33 64 82 39 87 e3 a4 3d 60 5b a0 3c e3 72 34 bc
       0.00024870186 0.0805121 0.019574821 -0.011013719
000200 a1 21 a5 bd b6 4a 9f bd a0 fc b1 bc c7 55 17 be
       -0.08063055 -0.07777922 -0.021726906 -0.14778815
000210 73 27 50 be 96 5e 45 3d fc 68 4b bd 80 4c fe 3b
       -0.20327549 0.048185907 -0.049660668 0.0077605844
000220 cc 77 fd bc ad 7c 77 3d 5c 14 88 3c e0 b1 71 bc
       -0.030940913 0.060421634 0.01661127 -0.014751881
000230 91 06 2a 3d 02 23 be bd d4 8d 95 3c a7 70 09 3e
       0.04151017 -0.09284021 0.018256105 0.1342188
000240 98 3c 5c 3c 89 02 b4 3d 96 4a c5 bc 4b 9c 95 3d
       0.013442181 0.08789546 -0.024083417 0.07305201
000250 16 04 40 3d d3 ce 8a bd fc 0a 12 3d cc 21 d9 3c
       0.046878897 -0.0677773 0.035655007 0.026505373
000260 2c 55 cb 3c 03 e3 43 bd 05 7a 8d 3d c1 e6 80 3d
       0.024820887 -0.047823917 0.06908039 0.06294013
000270 63 24 f8 3d 5b 6d 81 3d 3a 18 45 be 23 0e 0c bd
       0.12116315 0.06319686 -0.19247523 -0.03419317
000280 db 27 0f 3b 3a 8e 2f bd 8e b1 78 3d 7a c1 91 3c
       0.0021843824 -0.042860247 0.060716204 0.017792452
000290 db 6b d7 3c b0 3c 9e bd 26 ea 4b 3d 2c 10 e4 3c
       0.026296547 -0.07726419 0.04978385 0.027839743
0002a0 dc 1f d3 bc 19 84 37 3d d6 9c 3f bc 7a cd 46 3d
       -0.025772028 0.044803713 -0.011695107 0.0485358
0002b0 ad 19 47 bd 59 0b 0e bd fd f1 59 3d 93 2b 8e bc
       -0.04860847 -0.03467879 0.053209294 -0.017354762
0002c0 d5 e0 fc bc 99 36 0e be 86 cb 3f 3c 3d b5 a8 bd
       -0.030868927 -0.13888015 0.011706239 -0.082376935
0002d0 76 91 20 3d 01 f8 53 3e a4 f8 3b 3c 67 51 1f 3e
       0.039201222 0.20700075 0.011472855 0.15558396
0002e0 1d 02 cc bd 1c b9 6e bc 7c 5a b0 3c 52 0b e2 3c
       -0.099613406 -0.014570501 0.021527521 0.027593289
0002f0 6b fc 84 3c db ba bf bd dc 21 11 be e3 77 a1 3d
       0.016233644 -0.09361812 -0.14173073 0.07884195
000300 29 8d ea bd 12 6a d3 bd 00 6d 56 3d 50 3f f7 3c
       -0.114527054 -0.10322966 0.052350044 0.030181557
000310 9c ba 67 3d 0b d7 ce bc c0 a4 70 bd 3a 5b 1e 3d
       0.05657445 -0.025249025 -0.058750868 0.03866122
000320 1a 4b 22 3d d1 c2 8e 3d f9 81 10 3d b4 4a c9 3c
       0.039622404 0.06970752 0.0352802 0.024571754
000330 82 ac 79 bd 3a 4f 29 3c 05 78 4c bd 6e 75 f0 bd
       -0.060955532 0.0103338305 -0.049919147 -0.11741148
000340 6a bc 41 bd 1a 3b 52 bd d8 fc 67 3d d4 4b 63 bd
       -0.047298826 -0.051325895 0.056637615 -0.055492237
000350 2f 2f 94 3d 44 32 49 3d fd a8 91 bd eb 64 2f 3d
       0.07235562 0.049120203 -0.0711231 0.042820852
000360 e1 1c 85 3d 48 4d 4f bc b0 a5 bc bc 3e 1b 91 bd
       0.06499649 -0.012652703 -0.023028225 -0.07085274
000370 ec 2c af bd d5 0f a5 bd e3 96 5f 3e 8e 9f 80 3d
       -0.0855349 -0.0805966 0.21834902 0.06280433
000380 a4 01 9d bc fa f2 0a 3d a0 40 9d bc 00 3a 2e 3c
       -0.019165821 0.033923127 -0.019195855 0.010633945
000390 8c 78 c8 bc 0e 6d 54 be 80 9f 6c bb 5c 07 02 3d
       -0.024471544 -0.20744726 -0.0036105812 0.0317453
0003a0 88 5f 82 3c 51 d7 a7 bd aa 96 cb bc c3 a8 75 bd
       0.015914693 -0.08195365 -0.024852116 -0.059975397
0003b0 a7 01 3a bd c7 a0 9e bd eb ab 27 3d 7c 8c 17 bd
       -0.045411732 -0.077455096 0.040935438 -0.03699921
0003c0 cc 13 3d bd a1 2b 9b 3e 64 7d 9c 3d ec c0 d1 bc
       -0.046161458 0.30306724 0.07641104 -0.025604688
0003d0 14 56 7d bd c0 39 a7 3b c0 cc 91 bb 9c 6f bd bd
       -0.06184967 0.00510332 -0.004449457 -0.092498034
0003e0 b8 d4 e0 3a 59 26 99 bd d2 17 3d bd 3b fe 16 3e
       0.0017153239 -0.07478017 -0.046165295 0.14745419
0003f0 91 80 b6 bc 21 40 05 3d 81 99 8b 3d f8 a0 50 3d
       -0.022278102 0.03253186 0.06816388 0.05093476

lstm.weight_hh_l1 f4 [512, 128]
000000 72 a7 b7 3d bd 89 cd bd 8c 47 f6 3c f4 50 89 bd
       0.089674845 -0.10036037 0.030063413 -0.06704894
000010 e4 d0 29 3e cc c4 80 bc d8 bb 24 bd ed 34 ce 3a
       0.16583592 -0.01571884 -0.040218204 0.0015732326
000020 49 06 cc 3d 94 79 9b 3b 9f d7 5f bd 3c 38 12 be
       0.09962136 0.004744718 -0.05464899 -0.14279264
000030 99 b6 e1 3d 90 b4 0a 3d d1 86 ec 3c 9a d8 2c bd
       0.11021156 0.033863604 0.02887288 -0.042198755
000040 c1 4f 77 3d 73 f0 2f bd ed b8 3c 3c ec 15 b8 3d
       0.060378794 -0.04295392 0.011518699 0.08988556
000050 4d 76 0e 3e 65 10 86 bd c1 5d 21 3c 15 c8 6b 3d
       0.13912316 -0.06546096 0.009849013 0.05756386
000060 43 31 59 bd 30 cf 70 bd de 18 c7 3d 61 9f 2d be
       -0.053025495 -0.05879134 0.0972154 -0.1695533
000070 d7 bc 23 bd 7a 40 f5 3c 78 63 9d 3c 60 f8 17 3e
       -0.039975014 0.029937971 0.01921247 0.14840841
000080 49 15 13 3e 35 09 80 bd 73 c8 9e 3d 8c 7e b3 bc
       0.14363588 -0.06251756 0.077530764 -0.021910928
000090 59 84 66 bd 93 1c 53 bd 8a ec 2f 3d 61 2e 1c bd
       -0.05627856 -0.051540922 0.04295019 -0.038130168
0000a0 60 cd 2d be 80 8f 9f bd dc 52 b1 bc 60 6a 96 be
       -0.16972876 -0.07791042 -0.021645956 -0.29378033
0000b0 56 f5 96 bc ed 98 86 bc ec 66 93 3d 3f 99 26 3e
       -0.018427532 -0.016430343 0.07197365 0.16269396
0000c0 98 71 cd bd c1 41 14 be 17 d1 29 be 1f 39 17 be
       -0.10031432 -0.14478208 -0.16583668 -0.14767884
0000d0 32 61 bf ba 50 40 e7 bd e0 02 25 3e 75 85 c1 3d
       -0.001460111 -0.112915635 0.16114378 0.09449283
0000e0 42 94 20 3e a9 e6 36 bc 00 9b a2 3d f0 33 c6 bc
       0.15681556 -0.011163392 0.0793972 -0.024194688
0000f0 a6 ca 70 3d 7b 55 f7 bc b0 42 27 3c 60 dc e8 bd
       0.05878701 -0.030192127 0.010208771 -0.11370158
000100 7d 41 37 bd 3c c8 d2 3b 69 0e 80 3b 85 25 f3 bd
       -0.04474019 0.006432561 0.003907968 -0.11872391
000110 54 29 1e be df 44 4f bc 39 6c 70 bd e6 ae 09 be
       -0.15445453 -0.0126506975 -0.05869696 -0.13445625
000120 6f 2a 1e 3e eb dd 00 bd 6a df 2d bd e7 70 7e 3d
       0.15445875 -0.031461637 -0.042449392 0.06211939
000130 72 91 ca bc 7c 5f d3 3c 5c a4 a6 3d 62 dd 22 3e
       -0.024727557 0.025802366 0.08136818 0.15904763
000140 0b e1 f9 3d 87 bd 1e bc 30 0f ce bd 9a 7c 0c be
       0.12201127 -0.0096887415 -0.100614905 -0.13719407
000150 07 35 af 3d 6a 8a 4f bd 84 94 24 3d b5 b7 c1 3c
       0.08555036 -0.05066911 0.040180698 0.023647169
000160 ba 25 1c 3c 7d 69 fa 3d 1a 0b b0 3d e4 fe 59 3e
       0.009530479 0.122271515 0.085958675 0.2128864
000170 1e 34 8f bd e7 c1 ee 3c 81 d6 a6 bd 24 b8 4b 3d
       -0.069923624 0.029145194 -0.08146382 0.049736157
000180 be 91 89 3d 06 10 63 be c1 82 02 be f0 57 66 3c
       0.06717251 -0.22174081 -0.12745191 0.014059052
000190 8c 5f 8a be 90 cf f5 bc 34 ef 35 bd 38 b8 e7 3d
       -0.2702602 -0.0300062 -0.044417575 0.11314434
0001a0 ea 72 21 3d 05 57 82 bd f1 f4 6e 3d 4f cc a5 3d
       0.03941623 -0.06364254 0.058339063 0.080956094
0001b0 d6 0c c6 3d 88 b0 a9 3b 38 44 bb bc 7e a4 94 bd
       0.09670417 0.005178515 -0.022859678 -0.07257937
0001c0 1b e5 a8 bb 22 3f 25 3d b6 9f 60 3d a9 ed 8f 3c
       -0.0051542646 0.04034341 0.054839812 0.01756938
0001d0 99 d2 ea 3d e6 8f 04 be 43 91 5a 3e 9f 8f 12 be
       0.114659496 -0.12945518 0.21344475 -0.143126
0001e0 9d cf 21 3e 31 62 52 bc e0 59 99 3d 49 a7 45 3e
       0.15801854 -0.0128407935 0.074878454 0.19302095
0001f0 ac b4 c8 bd 83 09 b3 3d 1c 39 0e be 31 59 85 3d
       -0.098000854 0.087420486 -0.13888973 0.065111525
000200 d2 1b cb 3c ed c5 c6 bd 57 09 29 3d 40 60 ef bc
       0.02479354 -0.0970572 0.041268673 -0.0292207
000210 08 11 b4 3d 1e 1f 11 3d d2 1c 05 bc 67 18 77 bc
       0.08792311 0.035430066 -0.008124547 -0.015081502
000220 14 f1 ab 3d e9 21 07 3d bb 3d 29 3e 2f c7 6e bc
       0.083955914 0.032991324 0.16527455 -0.014573856
000230 df 1f 15 3e 2e b5 24 3e 8b a7 b8 bd df b6 eb bd
       0.14562939 0.1608474 -0.09016331 -0.11509489
000240 7b b1 27 3e 3d 47 d6 3b 71 c3 15 bd 0c 0a a0 bd
       0.16376297 0.006539254 -0.03656334 -0.07814416
000250 d8 a9 f6 bd e4 66 e3 bd 83 80 80 bd 87 17 5d be
       -0.12044114 -0.11103609 -0.06274512 -0.21591006
000260 51 e7 ef bc 5c d5 42 bd e5 cc e6 3d 55 8c cf bc
       -0.029285105 -0.047566757 0.11269549 -0.02533547
000270 3e 33 1e 3d bd 05 6c bd 7f f8 d1 3d b3 98 f4 ba
       0.038623087 -0.05762266 0.10252475 -0.001866123
000280 93 40 c0 3d 2a f8 19 3d 3e f8 91 3d d1 5f 0c be
       0.093873166 0.037590183 0.071274266 -0.13708426
000290 8c 06 da 3c 08 8b 0b be 4a e4 a0 3b e0 5b 04 3d
       0.02661445 -0.13627255 0.0049100267 0.03231418
0002a0 96 0d 9f bd 53 b4 b5 bd 5e ab d3 bd b1 71 93 bc
       -0.07766263 -0.08872285 -0.1033542 -0.017998548
0002b0 8f 86 e1 bd 19 e7 fe 3c 0c a0 80 3d 86 fe 86 3d
       -0.11011993 0.031116055 0.062805265 0.06591515
0002c0 ed 36 9d bd cb db 57 3b c2 39 de 3d ee 39 96 3d
       -0.07676492 0.0032937403 0.1085086 0.07335268
0002d0 0a 3f 22 3c a2 8b 81 bd 12 20 84 3e 6a 23 01 bd
       0.009902725 -0.06325461 0.25805718 -0.031527914
0002e0 67 be 71 3d 61 73 08 3c 17 82 86 bc 68 9d 3a 3d
       0.059019472 0.00832829 -0.016419454 0.04556027
0002f0 8d e5 32 3e 16 d3 87 3d 95 4f bf 3d 68 11 f5 3d
       0.17470379 0.06632058 0.09341351 0.119662106
000300 89 0b c0 3d d0 99 82 bc 36 8c 85 3d de 24 87 bd
       0.093772 -0.015942484 0.06520884 -0.06598829
000310 f6 fc 85 3d a1 0b 45 bd c8 a7 9a 3d 92 09 27 3d
       0.06542389 -0.048106793 0.07551533 0.04078061
000320 07 1e 5c bd 5f 30 f4 bc 61 4d c5 3d b1 13 82 3d
       -0.053739574 -0.029808221 0.096338995 0.06351412
000330 96 b0 50 bd bd d5 32 bc 29 b0 97 3d 29 58 21 bd
       -0.050949655 -0.010915217 0.07406647 -0.039390717
000340 bb 05 ba bd 29 6e 1b 3d 66 af d9 3c 75 f6 0a 3c
       -0.09083124 0.037946854 0.026572894 0.0084816115
000350 a0 f0 d8 bd bb d0 47 bd 63 a9 c9 bd 2d b9 36 3e
       -0.105927706 -0.048783045 -0.09846761 0.17844076
000360 93 8c 76 3d 02 cc e6 3c 7d ee 00 be 8b 2e 38 3e
       0.060192656 0.02817345 -0.12590976 0.17986505
000370 7b 88 3d be ca 17 3c 3c 16 5d 6a 3d d6 9a de 3d
       -0.18509094 0.011480281 0.05721768 0.10869376
000380 76 0c ad bd 9d e5 24 be 64 e1 e1 bc 6e 54 c6 3c
       -0.08449642 -0.16103216 -0.027573295 0.024210181
000390 a2 fa e2 bd fe 8b e1 3d 2b eb 4a be 48 f0 e2 3d
       -0.11082961 0.110130295 -0.19816272 0.11080986
0003a0 2d 78 73 bd a3 49 b5 bc 1e 09 af 3d 2f b6 5d 3e
       -0.05944078 -0.02212984 0.08546661 0.21651529
0003b0 45 61 18 be 94 b0 60 3d a5 25 c1 3d 5e 5b 14 be
       -0.14880855 0.054855898 0.09431008 -0.14487979
0003c0 c3 5c 83 3d 37 fb 61 bc 5f 44 b8 bd 20 48 3e be
       0.06414177 -0.013792804 -0.08997416 -0.18582201
0003d0 56 20 a1 bd 88 b0 0b be d1 0f 63 bd dc 85 17 be
       -0.07867496 -0.1364156 -0.055435006 -0.14797157
0003e0 9f 71 1b bd bf 01 e1 bd d4 0f 60 bd a7 ea b8 bd
       -0.037950154 -0.10986661 -0.054702595 -0.090291314
0003f0 8a 7c fa 3c a8 7d 92 3d 66 03 4c be 5d 2e 73 3d
       0.030576963 0.07152873 -0.19923171 0.059370387

lstm.bias_ih_l1 f4 [512]
000000 08 78 51 3d 6b 98 06 bd bf c1 83 bd 5a 30 99 bd
       0.05113986 -0.0328602 -0.064334385 -0.074799255
000010 3c 2d f3 bd 7f 98 22 be 94 96 8f 3d 9c c4 fc 3c
       -0.11873862 -0.15878485 0.070111424 0.03085547
000020 1a 6b 07 bd e4 75 37 3e be 45 18 3d b5 cf 38 bd
       -0.033061124 0.17916065 0.037175886 -0.04511996
000030 a6 97 40 ba 0e 20 ca bd 5e 68 2c bb d6 58 9c 3d
       -0.0007346816 -0.09869395 -0.0026307325 0.076341316
000040 95 bc 08 3e 55 cf f4 bd d9 5a 85 bd 5f 21 a9 bd
       0.13353188 -0.11953608 -0.065114684 -0.08258318
000050 36 7a 13 3d 29 8a c9 bd 62 bd 96 bd a4 fe dd 3d
       0.03600522 -0.09840805 -0.07360341 0.108395845
000060 a5 dc 07 bb a7 fa 1a bd 5d 5b 35 bc 25 32 35 3c
       -0.002073088 -0.037836697 -0.011069146 0.011059319
000070 da 49 19 3e 90 ce 38 3b f3 03 08 bd e1 75 ba bd
       0.14969578 0.0028199293 -0.03320689 -0.09104515
000080 b0 8f 04 3e a3 e9 8f bd 25 8f 15 bd 22 3f c8 bd
       0.12945437 -0.070269845 -0.036513466 -0.09777667
000090 06 f7 45 bd ef f8 57 bb 3e 98 db bc 18 6e ef bd
       -0.048331283 -0.0032954772 -0.026805993 -0.116909206
0000a0 2f f2 ec bd d9 05 22 3d d2 58 c2 bb fb 9f 3f 3d
       -0.1156963 0.039556358 -0.0059309984 0.04678343
0000b0 d5 88 9f 3d 64 97 08 be 98 a0 c5 bd 7f ce c7 bd
       0.077897705 -0.13339001 -0.096497715 -0.09756183
0000c0 e3 a4 a8 3b 18 6d dc 3c b6 33 1c be 00 27 20 be
       0.005146609 0.026907489 -0.15254101 -0.15639877
0000d0 01 ad d6 bd 39 45 d0 bd 07 b5 1a be e0 ef a5 bd
       -0.104822166 -0.10169453 -0.15108119 -0.08102393
0000e0 34 4f e9 3d 32 42 27 3d e1 56 0f be 6a 6c ef 3a
       0.1139206 0.040834613 -0.13997985 0.0018266563
0000f0 75 73 e1 bd 1a 5c 49 3d fe a9 2d 3d ab df b0 bd
       -0.1100835 0.0491601 0.042398445 -0.08636411
000100 6d eb 8b bd 2b 1b 1a be e5 21 d6 bd 05 07 ea bd
       -0.06832013 -0.15049426 -0.104556836 -0.1142712
000110 fe 9b 2f bd 56 54 0c bc e7 f5 52 3d f1 72 0f be
       -0.042873375 -0.008565029 0.051504042 -0.1400869
000120 95 b2 90 3c b5 88 da bd 6c 11 9b bb 4b d8 81 bd
       0.01766328 -0.10670606 -0.0047323015 -0.06340083
000130 49 fd b1 bd 20 db 38 3d c8 ac a9 3d 11 6d 70 3c
       -0.086908884 0.04513085 0.082849085 0.014674441
000140 fe 7b 18 be 4a de b3 bb 29 97 bd bd be f3 dd bc
       -0.1489105 -0.0054891454 -0.09257347 -0.027093764
000150 4a a3 4a 3e 5c 23 d2 bd 9f a3 e9 3c a7 ea 61 3e
       0.19788852 -0.102606505 0.028520403 0.22062169
000160 f7 b0 3f bd f0 6f 36 3e de 5b 6a bc 90 23 4c bd
       -0.046799626 0.17816138 -0.014304129 -0.049838603
000170 04 85 8e bd cf 01 d8 3d e4 56 17 be 3b cf 30 bb
       -0.069589645 0.1054722 -0.1477924 -0.0026978988
000180 9e 32 f2 bc ad 3b f5 3c d9 83 f9 3d e7 be ef bc
       -0.029565152 0.029935682 0.12183351 -0.029265834
000190 dd 3a e7 bd aa 79 0a be 98 72 06 be bc 3a 5f 3c
       -0.11290524 -0.13522974 -0.13129652 0.013624843
0001a0 5a 30 0b be 59 0c fc bc ab 91 99 bd 3f b7 00 be
       -0.13592663 -0.030767607 -0.07498487 -0.12569903
0001b0 97 d6 0c 3d 51 44 25 3c 86 de 1a bd 84 61 1d 3d
       0.034384336 0.010087089 -0.03780987 0.038423076
0001c0 8a ca 99 bd 35 f4 81 bc 93 b3 6a bd 2f b1 14 3e
       -0.075093344 -0.015863517 -0.05730016 0.14520715
0001d0 ac 55 56 3d 42 be f7 bd c4 36 8d bd 7b c5 35 3a
       0.052327797 -0.12096836 -0.06895211 0.0006934029
0001e0 90 b8 be bd 75 27 25 be a1 01 3d 3e f0 cb 51 3d
       -0.09312546 -0.16128333 0.18457653 0.05121988
0001f0 9c 6f 94 bd 98 81 1e be 8c df f3 bd 98 22 c5 bd
       -0.0724785 -0.15479124 -0.119078726 -0.09625739
000200 e0 66 1a bd 42 84 d8 bd c7 e2 64 3a f7 10 0f 3d
       -0.037695765 -0.10572101 0.0008731302 0.03492829
000210 fd 19 83 bd ff 90 85 3d 40 02 a0 3d 52 c5 28 bc
       -0.06401441 0.065217964 0.07812929 -0.010300951
000220 5f 52 f2 bd 8f 04 85 3c d7 78 1e bd 4d a2 90 bd
       -0.11832117 0.016237525 -0.03868946 -0.070622064
000230 13 59 08 be f1 88 8e 3c 7d a9 38 3d 69 e3 a2 3c
       -0.13315229 0.017399283 0.04508351 0.019883828
000240 30 92 62 3d 80 94 08 bd 34 bc 31 be 69 ea 7f bb
       0.055315197 -0.033344746 -0.1735695 -0.0039049631
000250 d3 ce ed bd ce 29 54 bd 03 c5 d3 bd e7 01 86 bd
       -0.11611714 -0.05179768 -0.103403114 -0.065433316
000260 44 bb 53 3d d7 b9 1e bc 85 28 a9 3d d3 d4 b4 bd
       0.051692262 -0.009687862 0.082596816 -0.088296555
000270 ed bc f7 3d d7 e4 8d bc 09 85 0e bd 90 81 35 bd
       0.120965816 -0.017321033 -0.03479484 -0.044313014
000280 b3 c4 d9 3d d5 45 cb bd 37 89 38 bd e4 e7 13 3d
       0.106332205 -0.09925429 -0.045052733 0.03610982
000290 9a 8a 26 be 3f ca cf bd 48 b8 a7 bc 90 01 34 3d
       -0.1626381 -0.10145997 -0.020473614 0.043946803
0002a0 d0 30 28 3d 76 f6 83 3d 7e 05 b5 bd bd 06 64 3d
       0.041062176 0.06443493 -0.08838938 0.05567049
0002b0 6a 09 08 bc 7b 5e 92 bd a9 17 10 bd 58 35 8d 3d
       -0.008303026 -0.07146927 -0.035178814 0.0689494
0002c0 2a 80 90 3d 71 e3 40 3c 95 1c d0 bc 0a 4e 3a bd
       0.07055695 0.011772976 -0.025404254 -0.04548458
0002d0 62 85 75 3c a8 65 49 3d 37 c9 6b 3c 3c d2 1f 3d
       0.014985414 0.049169213 0.014391235 0.039018854
0002e0 7d 71 18 bc eb fc 06 3d da c8 a6 bc 43 41 0d bd
       -0.009304401 0.032956045 -0.020359445 -0.034486067
0002f0 79 f1 6c bb cf 79 d4 3d 04 c4 91 bd a5 31 2a 3d
       -0.003615467 0.10374796 -0.07117465 0.04155125
000300 e6 ff 37 3d d5 fa af bd 7b 92 88 bd b9 fd b7 3c
       0.04492178 -0.08592764 -0.06668564 0.022459852
000310 cc a3 5d 3d 56 c4 aa 3d 4b e4 78 bd 2a f4 a0 3c
       0.054111287 0.08338229 -0.060764592 0.019647676
000320 b3 d6 16 3d 10 38 02 3d 09 18 2d 3d 24 79 9b 3c
       0.036825847 0.031791747 0.04225925 0.018978663
000330 7f e1 cf bd 05 79 99 bd db 71 12 3e 67 66 3d 3d
       -0.10150432 -0.07493786 0.14301245 0.046240237
000340 7d 4b 03 be a6 85 17 3d 2d 65 b4 bd 0e fb 58 3c
       -0.12821765 0.03699269 -0.0880836 0.01324345
000350 3f 6a b8 bc e6 45 c2 3c b7 8e 03 3d 22 65 16 3c
       -0.0225116 0.02371497 0.032118525 0.009179385
000360 2d 7d 95 bc 41 d2 2a 3d c0 d8 e3 3c c2 ce b1 3d
       -0.018248165 0.04170442 0.027813315 0.08682014
000370 36 ff 36 bd a2 3b a7 3d 61 b0 03 be d7 07 25 bc
       -0.044676982 0.08165671 -0.12860252 -0.01007267
000380 b2 1e aa bd 4c 57 3a 3e 8d 4e 36 3c f8 2a a2 bd
       -0.08306636 0.18197364 0.011127126 -0.07918352
000390 da 16 cc 3d 93 12 33 bd 88 14 79 bc 79 67 24 bd
       0.09965296 -0.043718886 -0.015202649 -0.04013774
0003a0 f4 6e 10 be 71 42 b7 3d 15 b8 fa bd 9f 35 ea bc
       -0.14104825 0.089482196 -0.12242142 -0.028590022
0003b0 d9 4c 0d bd 32 77 db 3c 6f 7a 21 be 6e 98 59 3d
       -0.034497116 0.026790235 -0.15769361 0.053123884
0003c0 6d 46 05 bd 91 8b 86 bd d1 a3 36 3d fd 24 24 3d
       -0.032537866 -0.06569589 0.04458982 0.040074337
0003d0 d0 21 ed 3d 8a 57 94 3d 2e 63 fe bc 50 29 59 3d
       0.11578715 0.07243259 -0.031053152 0.053017914
0003e0 2c d9 eb bd 25 ab 07 be 36 21 87 bd 74 bf 26 bd
       -0.115160316 -0.1324888 -0.06598131 -0.040709928
0003f0 b1 81 07 be 57 52 d8 bd 69 74 92 3c 9c ec 0d 3d
       -0.13233067 -0.1056258 0.017877774 0.034649476
